quickStart01/outModel/lenet5_1-10_2.onnx (onnx, 178781 bytes, 8 tensors)

fc3.bias f4 [10]
0	0x3d97f28d	0.0741931
1	0x3dd1cb7a	0.10243888
2	0xbd22980d	-0.03969579
3	0x3b2d9f3d	0.0026492618
4	0x3b3c4c47	0.0028731988
5	0xbdc6d34c	-0.097082704
6	0x3b440a92	0.0029913527
7	0x3b487e40	0.003059283
8	0xbd5d24a3	-0.053990018
9	0x3b27ff64	0.0025634402

fc3.weight f4 [10, 84]
0	0xbc7fbd84	-0.015609149
1	0xbb4340bf	-0.002979323
2	0x3c431a7a	0.011908168
3	0x3bafef9e	0.0053691408
4	0x3c08352d	0.008313459
5	0x3c331196	0.010929486
6	0xbb82dff1	-0.003993981
7	0xbc2e0297	-0.010620735
8	0x3c241a98	0.010016106
9	0xbc20e359	-0.009819829
10	0x3b1b5898	0.002370393
11	0x3c350f35	0.011050989
12	0x3bbe5fd9	0.005809766
13	0xbcb8beac	-0.022551857
14	0xbc54dc73	-0.012992012
15	0x3bbb0620	0.0057075173
16	0x3c120bc4	0.008913938
17	0x3bc78dd3	0.006089905
18	0x3c55bafc	0.013045069
19	0xb904dd1b	-0.00012670869
20	0xbc604337	-0.0136879
21	0xbbf8df79	-0.0075949994
22	0x3bf34245	0.0074236714
23	0xbb2f2f68	-0.0026731137
24	0x3bfedf51	0.0077780862
25	0xbc81d13a	-0.015846837
26	0xbba62df3	-0.0050713955
27	0x3c3d0015	0.011535664
28	0xbb76b981	-0.003764719
29	0xbbb0ec23	-0.0053992434
30	0x3b3d6003	0.0028896339
31	0x3c0abfce	0.008468581
32	0xbc8e1f17	-0.01734881
33	0xbc679c9f	-0.0141364625
34	0xbc361726	-0.011113917
35	0x3c9194e4	0.017771192
36	0xbc43d960	-0.011953682
37	0x3c472a7d	0.012156126
38	0x3c3e9ff0	0.011634812
39	0x3c16dd38	0.009208016
40	0x3c46ad2d	0.012126249
41	0x3ae54b1f	0.0017493701
42	0x3b6bb618	0.003596669
43	0x3c01c297	0.007919929
44	0x3c35babb	0.011091883
45	0x3bb03aad	0.0053780884
46	0x3c313f2b	0.010818283
47	0xbbb7776a	-0.005598952
48	0xbc4e9644	-0.012609068
49	0xbbc29b2f	-0.0059389095
50	0x3be282d5	0.006912569
51	0xbb07fd14	-0.0020750212
52	0x3c2ce83b	0.010553415
53	0x3c109563	0.008824679
54	0xbcc89fe0	-0.024490297
55	0x3c4c4af9	0.012469047
56	0xbb1b90ff	-0.0023737547
57	0xbb02ea94	-0.0019976245
58	0xbb89880a	-0.0041971253
59	0x3ac17418	0.001475933
60	0x3a5732b0	0.0008209152
61	0xbc8d9b5d	-0.017285997
62	0x3c434299	0.011917734
63	0xbb8dc77c	-0.004326759
64	0xbc42cd54	-0.011889774
65	0x3c0d7951	0.008634881
66	0x3c53547e	0.0128985625
67	0xbc711166	-0.014713621
68	0xba32d691	-0.0006822134
69	0x3b9c30f3	0.0047665774
70	0x3b939c6d	0.0045047314
71	0xbc015374	-0.007893432
72	0x3c47ed2c	0.012202542
73	0x3bcd7acb	0.0062707416
74	0xbc1a5221	-0.009418995
75	0x3bd3be11	0.0064618667
76	0xbb834cdc	-0.004006965
77	0xbb8e8874	-0.0043497626
78	0xbc2a18f5	-0.010381927
79	0x3c8fa546	0.017534863
80	0xba74cb2e	-0.00093381375
81	0x3c2ae4b9	0.010430508
82	0x3c36f350	0.011166409
83	0x3ac444f0	0.0014974158
84	0x3c0623bd	0.008187232
85	0xbc81ca6c	-0.015843593
86	0x3c029705	0.007970576
87	0xbb9114de	-0.0044275364
88	0xbacf2cfe	-0.0015806255
89	0x3bc2891e	0.005936756
90	0x3bbd1323	0.0057701035
91	0xbb850a16	-0.00406004
92	0x3bc6843e	0.006058245
93	0x3b888844	0.0041666348
94	0xbbd4c00e	-0.0064926213
95	0xbc28f815	-0.010313054
96	0x3b0d22cc	0.0021535633
97	0x3a830952	0.0009997285
98	0x3beac8aa	0.0071650343
99	0x3a9b5b69	0.0011852804
100	0x3a495ee6	0.00076816825
101	0xbb0a3f70	-0.002109494
102	0xbb1b7b1b	-0.00237245
103	0xbac70663	-0.0015184399
104	0xbc024417	-0.007950804
105	0xbaa80cf0	-0.0012821238
106	0x3c861bf6	0.016370755
107	0x3b4f50fa	0.003163396
108	0x3bb44bb0	0.0055021867
109	0x3b9f71e9	0.004865874
110	0x3c2d7012	0.010585802
111	0x3c683be1	0.0141744325
112	0xbb969ddb	-0.0045964546
113	0xbb8131e0	-0.003942713
114	0xbbb9fac1	-0.005675644
115	0xbb8238ab	-0.0039740405
116	0xbc133e67	-0.008987046
117	0xbb8b052b	-0.0042425594
118	0xbabb25fb	-0.0014278287
119	0xb9f73533	-0.00047151148
120	0xbcae14a2	-0.021250073
121	0xbc329822	-0.010900529
122	0xbac09511	-0.0014692863
123	0xbb9bb3ef	-0.0047516744
124	0x3b2332fe	0.002490222
125	0x3ad7fd44	0.0016478677
126	0x3b50ecb7	0.0031879374
127	0xbb4a60a3	-0.0030880354
128	0x3bc4f4ca	0.0060106264
129	0x3a9444f5	0.0011312055
130	0x3bc18264	0.0059054364
131	0xbc4fe202	-0.012688162
132	0x3ca28dd9	0.019843029
133	0xba6e6f32	-0.0009095549
134	0xbc134890	-0.008989468
135	0xbcb5a497	-0.02217321
136	0xbb48eca1	-0.003065862
137	0xba014dff	-0.0004932582
138	0x3b379a99	0.0028015731
139	0x3c189d64	0.009314869
140	0x3c9dae91	0.019248279
141	0x3c8d6aae	0.017262783
142	0x3cbd3f32	0.023101423
143	0x3acbe4af	0.0015555824
144	0xbb2cd290	-0.0026370622
145	0xbcbc83f8	-0.023012146
146	0xbb95fdea	-0.004577388
147	0xbc1e724c	-0.009670805
148	0xbcd4e2a2	-0.025986973
149	0x3ba2274a	0.0049485313
150	0xbb4089ba	-0.0029378966
151	0xbbdac7d8	-0.0066766553
152	0xbbb26f53	-0.0054454
153	0xbc619e1c	-0.013770606
154	0x3c8f74f2	0.017511819
155	0x3b819e70	0.003955655
156	0x3b9517a3	0.004549937
157	0x3b5b64ba	0.0033476786
158	0x3c4d5f9e	0.012535004
159	0x3c1cf68e	0.009580268
160	0x3a2739f5	0.00063791807
161	0xbb37bbe8	-0.0028035585
162	0x3c0ee162	0.008720728
163	0x3bb15bb3	0.0054125427
164	0x3c5180dd	0.012787071
165	0x3ba6b57a	0.0050875517
166	0xbc88932c	-0.01667174
167	0xbb152154	-0.002275546
168	0xbb36390a	-0.0027804994
169	0x3b7ac2a9	0.0038263
170	0xbbcf7020	-0.006330505
171	0xbb243fc9	-0.0025062433
172	0x3c0d808c	0.008636605
173	0x3c43eac5	0.011957829
174	0x3c1abed0	0.009444907
175	0x3c005af0	0.007834181
176	0xbb407d2c	-0.0029371483
177	0xbcb37aa4	-0.021909066
178	0x3b9f624c	0.004864013
179	0xbc2f7f99	-0.010711574
180	0xbc3d6f1c	-0.011562135
181	0xbc035ee0	-0.008018225
182	0x3c055fd9	0.008140528
183	0x3c23d2a2	0.009998949
184	0x3bb3ddf7	0.0054891068
185	0xbb30a88d	-0.0026955933
186	0xbb51142b	-0.003190289
187	0x3c8bd2a8	0.017068222
188	0xbb6bf9dc	-0.0036007082
189	0xbb8db0fe	-0.0043240776
190	0xba98b0b4	-0.0011649341
191	0xbbf7993c	-0.0075561088
192	0xbcd31aa7	-0.025769545
193	0x3c174799	0.009233379
194	0x3b5b6b3b	0.0033480662
195	0x3a04fbcd	0.00050729216
196	0x3bf2120d	0.0073874057
197	0xbc2726bc	-0.010202106
198	0xbc517583	-0.012784365
199	0x3c22dc54	0.009940226
200	0xbb45c989	-0.0030179939
201	0xbc40d3f1	-0.011769281
202	0x3ae7cdc6	0.0017685227
203	0xbab010d3	-0.0013432748
204	0x3b4c5f21	0.003118463
205	0xbb8ac068	-0.0042343624
206	0xbc05acd7	-0.008158884
207	0xbaa8b710	-0.001287194
208	0xbc94ca4a	-0.018162865
209	0x3c0d55e7	0.008626438
210	0x3c6f8db9	0.014621192
211	0x3c36b4c5	0.011151497
212	0xbc531464	-0.0128832795
213	0x3ac655f0	0.0015131813
214	0x3c7f21e0	0.015572041
215	0xbc54e1bb	-0.012993271
216	0xbb3b62a3	-0.0028592728
217	0x3a92f4e4	0.0011211899
218	0xbc61cf28	-0.0137823
219	0x3c0ba2de	0.008522717
220	0x3a0ce6cb	0.0005374967
221	0xbc55add5	-0.013041933
222	0x3b36e867	0.0027909519
223	0x3c47f7ad	0.012205047
224	0xbc06090c	-0.008180868
225	0x3ac634bf	0.0015121921
226	0xbbe12a0c	-0.0068714675
227	0x3ba09b9a	0.0049013617
228	0xbc630606	-0.013856417
229	0x3cc181cc	0.023621462
230	0xbcbded04	-0.023184307
231	0x3a59b8d4	0.00083054346
232	0xbb95384b	-0.00455383
233	0x3c4ea731	0.012613104
234	0x3b78eec1	0.0037984105
235	0x3ba8de73	0.005153471
236	0x3c1d123d	0.009586868
237	0x3c9bf4cf	0.019037632
238	0xba1fdf27	-0.0006098621
239	0xbb6d7dbc	-0.0036238274
240	0x3c87eb8b	0.016591808
241	0xbc027d23	-0.007964405
242	0x3bae45b5	0.0053183683
243	0x3b58224d	0.003297943
244	0xba024c84	-0.0004970508
245	0x3bb15603	0.0054118647
246	0x3c1cacfd	0.009562728
247	0x3c8e719c	0.017388158
248	0x3c45371f	0.012037068
249	0xbb9299bc	-0.004473893
250	0x3c59642a	0.01326851
251	0xbab0c8d9	-0.0013487592
252	0x3c8f0fda	0.017463613
253	0x3b134142	0.0022469317
254	0xbb3279fd	-0.0027233355
255	0xbcaa456c	-0.020785056

fc2.bias f4 [84]
0	0x3b032042	0.002000824
1	0x3a3631f2	0.00069501915
2	0x3b8e7394	0.004347274
3	0x3aff4960	0.0019476824
4	0x3b0c53d0	0.002141226
5	0xbabd37dd	-0.0014436204
6	0x38f8806c	0.00011849482
7	0xbae4e83b	-0.001746423
8	0x3ab7ba2a	0.0014017273
9	0x3b305b0a	0.0026909732
10	0x3af373f8	0.001857399
11	0x3a5fb424	0.0008533618
12	0x3b123964	0.002231204
13	0xba5a4c0c	-0.0008327372
14	0x38af0f04	8.347447e-05
15	0x39d123b1	0.0003989018
16	0xba7fd9d5	-0.00097599375
17	0x00000000	0.0
18	0x3aac2905	0.0013134783
19	0xbae684c2	-0.0017587172
20	0xbab4d669	-0.0013796809
21	0x3a26e159	0.0006365977
22	0x3b487550	0.0030587502
23	0x39f58d4b	0.00046835313
24	0xb9cd1dd7	-0.0003912288
25	0x3b1a822a	0.002357612
26	0x00000000	0.0
27	0xb5540040	-7.897652e-07
28	0xba47bd1d	-0.00076194276
29	0x38f385d6	0.00011612072
30	0x37fb0c89	2.9927369e-05
31	0x3aabb00c	0.0013098731
32	0xb9fa05a9	-0.00047687933
33	0xbaf83e03	-0.0018939379
34	0xba8062e5	-0.0009795098
35	0x00000000	0.0
36	0x3923e516	0.00015630233
37	0x3a2a61a0	0.00064995326
38	0xb9b541bc	-0.00034571986
39	0xb9803fab	-0.000244615
40	0xb8fe5b0a	-0.00012128621
41	0x385e3eaa	5.2987285e-05
42	0x3a4c4e4d	0.000779365
43	0xba1a67a0	-0.0005890075
44	0xb9d2bc76	-0.00040194736
45	0xba4745f7	-0.0007601673
46	0x39cc2312	0.00038936042
47	0xb5cb5230	-1.5148598e-06
48	0x3a8b1f17	0.0010614124
49	0xb9cb189b	-0.0003873751
50	0x3b24724f	0.0025092547
51	0xb9e99a27	-0.00044556076
52	0x3a0452f7	0.0005047763
53	0xb996cb10	-0.00028761523
54	0x3a063fd9	0.00051212084
55	0x3af47a48	0.0018652165
56	0x3ac7e022	0.0015249292
57	0xb9eed680	-0.00045554712
58	0x3b1fdd59	0.0024393408
59	0x3a2220c3	0.00061846914
60	0x3a34ab78	0.0006892006
61	0xb9491e3d	-0.00019180118
62	0x395e89b8	0.00021222874
63	0xba9b013c	-0.0011825929
64	0xbb4ff05d	-0.003172896
65	0xba00fcbf	-0.00049204746
66	0x38199dae	3.6624893e-05
67	0xb80eb9d6	-3.402851e-05
68	0xbb0509dc	-0.0020300066
69	0xba37d12d	-0.00070120656
70	0x00000000	0.0
71	0xba7c7a9e	-0.00096313085
72	0xbab91eea	-0.0014123593
73	0x373ad724	1.1136555e-05
74	0x3a8f225e	0.0010920276
75	0x3b74b94f	0.0037341898
76	0x3b12300e	0.0022306475
77	0xba9669e9	-0.0011475655
78	0xba1a4a7f	-0.00058857346
79	0x39d99088	0.0004149715
80	0x3a18e9b3	0.0005833164
81	0x3aa2e309	0.0012427281
82	0x39270659	0.00015928726
83	0xbb10997d	-0.0022064142

fc2.weight f4 [84, 120]
0	0x3b8a13ff	0.0042138095
1	0xba80c73d	-0.0009825003
2	0xbb3721df	-0.0027943773
3	0xbc294c54	-0.010333139
4	0x3ae1eb7a	0.0017236315
5	0xbc38b379	-0.011273258
6	0xba624189	-0.00086309813
7	0x3c00b3fd	0.007855413
8	0xbb4780ac	-0.0030441685
9	0x3c5a6f7c	0.013332244
10	0x3b76cebc	0.0037659844
11	0xbb9ebbf6	-0.004844184
12	0x3bda9eee	0.006671778
13	0xbc2f71f7	-0.010708324
14	0x3c6e75fb	0.014554496
15	0x3a690a4a	0.0008889778
16	0x3b05d706	0.0020422353
17	0x3b3257c2	0.0027212952
18	0xbb92ec23	-0.004483716
19	0xbc61289d	-0.013742593
20	0x3bd5c3e1	0.0065235947
21	0x3b605190	0.0034228303
22	0xba3f74c5	-0.0007303472
23	0xbc9f8ea5	-0.019477198
24	0x3c229cf1	0.009925113
25	0x3bcb345e	0.006201311
26	0xba8c2674	-0.0010692612
27	0xbcd636e2	-0.026149217
28	0x3aafcdf5	0.001341282
29	0x3bba0f71	0.0056781103
30	0xbbb0e4c1	-0.0053983633
31	0x3adf8fd7	0.0017056417
32	0xbafcd1f4	-0.0019288645
33	0xbb420ce5	-0.0029609737
34	0x3b2543f6	0.002521751
35	0x3be07632	0.0068500275
36	0x3b2d803e	0.0026474143
37	0xbb91e6c6	-0.004452559
38	0x3c9a8b4f	0.018865256
39	0x3c2d1273	0.010563481
40	0x3b0dba8e	0.0021626088
41	0x3bb19195	0.005418966
42	0xbc3f8871	-0.011690245
43	0x3ac3d7ee	0.0014941671
44	0xbbb5758c	-0.0055376943
45	0xbc660822	-0.014040025
46	0x3ba76f2c	0.0051096883
47	0xbb685655	-0.0035451849
48	0xbc99c8e6	-0.018772554
49	0x3cc0fb5c	0.023557357
50	0xbc159355	-0.009129365
51	0x3c38ffc2	0.011291446
52	0xbc542869	-0.012949088
53	0xba3da39e	-0.00072341587
54	0x3be0beea	0.006858696
55	0x3c69ac25	0.014262234
56	0x3c64ae86	0.013957625
57	0x3c2b641f	0.010460882
58	0x3b096dda	0.0020970018
59	0x3c1cfb60	0.009581417
60	0x3b2adbfe	0.0026071067
61	0x3b05af71	0.002039876
62	0x3ba2ff4d	0.004974282
63	0xbab503ac	-0.0013810298
64	0x3be4714b	0.0069715134
65	0xbc558729	-0.013032713
66	0xb99b4bb0	-0.00029620295
67	0x3c4b95db	0.012425865
68	0x3c04bfcf	0.008102371
69	0x3a63eebe	0.0008694938
70	0xbad98f9b	-0.0016598584
71	0x3c27a31d	0.01023176
72	0xbcb5066c	-0.022097789
73	0xbccb43dd	-0.024812633
74	0x3bb07c3b	0.005385903
75	0xbb31454a	-0.0027049356
76	0x3b949b12	0.0045350874
77	0xb8374ad3	-4.3700285e-05
78	0x3c8613f9	0.016366946
79	0x3bacf76f	0.00527852
80	0x3c034fcc	0.0080146305
81	0xbb6b2447	-0.0035879777
82	0x3c2d8be0	0.010592431
83	0xbcec60da	-0.028854776
84	0xbc865b7b	-0.016401043
85	0x3b36d77a	0.002789943
86	0x3bb64bd9	0.005563241
87	0xba17fb00	-0.0005797595
88	0xbab2a5ca	-0.0013629731
89	0x3cade3e0	0.021226823
90	0x3c14461e	0.00904992
91	0xbc80ee49	-0.015738623
92	0x3b01a9a3	0.001978495
93	0xbb53bebf	-0.0032309738
94	0x3c912e41	0.01772225
95	0x3c53d3eb	0.012928943
96	0xbc009f95	-0.007850547
97	0x3c5470a8	0.0129663125
98	0xbb034c6f	-0.0020034572
99	0x3c2f3afc	0.010695215
100	0x3cc7b066	0.024376106
101	0xbc0bbfd4	-0.008529622
102	0xbbeee384	-0.0072903056
103	0xb8c5e8dd	-9.437066e-05
104	0xbc27dee7	-0.010246015
105	0x3c0beb8b	0.008540045
106	0xbc3661d3	-0.011131722
107	0xbbbbd53c	-0.0057322066
108	0xbbfbb95d	-0.007682009
109	0x3c0cb661	0.008588404
110	0x3c2c5861	0.010519118
111	0xbba54f29	-0.005044837
112	0x3a95c3c6	0.0011426143
113	0xbb1da950	-0.0024057217
114	0x3c7ce4a8	0.015435375
115	0x3b264372	0.002536979
116	0x3b25d7bb	0.0025305587
117	0xb9582b7f	-0.00020615569
118	0xbb8d709a	-0.0043164017
119	0xba270001	-0.0006370545
120	0xba1f18ff	-0.00060690934
121	0xbc64b9e9	-0.01396034
122	0xbb39242d	-0.0028250322
123	0x3c2204f6	0.009888878
124	0x3c2b4546	0.010453528
125	0xbb954f15	-0.0045565465
126	0x3c305970	0.010763511
127	0x39bcd467	0.00036016406
128	0x3a1e9fe4	0.0006051047
129	0xbc16a81d	-0.009195355
130	0xbb038ca4	-0.0020072842
131	0xbbdc2f69	-0.006719519
132	0xbb76ac07	-0.0037639157
133	0x3b14fb55	0.0022732813
134	0xbc13f573	-0.009030688
135	0x3c051183	0.008121851
136	0xbc5f8143	-0.013641658
137	0xbc76eeac	-0.015071552
138	0x3bc48d2a	0.0059982734
139	0x3c9ac79a	0.018894006
140	0xbbcfdcd8	-0.0063434653
141	0xbb9fe6a6	-0.0048797904
142	0xbcb7b228	-0.022423819
143	0xbc71bcba	-0.014754469
144	0x3a9eac5e	0.0012105813
145	0x3c000f7e	0.007816194
146	0xbaa596b5	-0.0012633415
147	0xbbbdf361	-0.0057968353
148	0x3bc6debd	0.006069033
149	0xbc0ad45b	-0.008473481
150	0x3b2a06e1	0.0025944042
151	0x3bf34497	0.007423948
152	0xbc033fb5	-0.008010794
153	0x3b09811f	0.0020981503
154	0xbc22de25	-0.009940659
155	0x39dcd51d	0.00042120452
156	0x3bfba620	0.0076797158
157	0x3baac847	0.005211863
158	0x3bec542f	0.007212184
159	0xbc29cb41	-0.010363401
160	0xbbbd9886	-0.0057860045
161	0x3c0df1e9	0.008663633
162	0x3c34a78a	0.011026273
163	0x3c6c1149	0.014408418
164	0x3b73ca80	0.0037199557
165	0xbbf4de4b	-0.0074727884
166	0x3c6b0b34	0.014345933
167	0x3c06e510	0.008233324
168	0x3cc2309b	0.023704818
169	0xbbf694e6	-0.0075250743
170	0xbba8e4f5	-0.005154247
171	0x3bbb2878	0.0057116114
172	0x3af4c944	0.0018675704
173	0x3b5b44c3	0.0033457733
174	0x3acf81ee	0.0015831569
175	0xbc9354fc	-0.01798486
176	0xbc89b425	-0.016809532
177	0x3b835e20	0.0040090233
178	0xbc28a750	-0.010293797
179	0x38b99406	8.849059e-05
180	0xba588d7c	-0.0008260829
181	0x3b206fb5	0.0024480645
182	0xbbe358cd	-0.006938076
183	0x3c015517	0.007893822
184	0xbc257c93	-0.010100502
185	0x3c05725f	0.008144944
186	0x3c17cfff	0.009265899
187	0x3c1ff91e	0.009763984
188	0xbc39a060	-0.01132974
189	0x3c13885f	0.009004681
190	0xbafc340e	-0.0019241588
191	0xbbe1fc09	-0.0068965
192	0xbc7cee6b	-0.015437703
193	0x3cac2594	0.021014012
194	0xbb9bf166	-0.0047590015
195	0xbbefb685	-0.007315459
196	0xbb72a9b5	-0.0037027423
197	0x3c587ba6	0.013213074
198	0xbc6e05f3	-0.014527786
199	0x3bf0665e	0.007336422
200	0x3bea2f36	0.0071467413
201	0x3af9c459	0.0019055709
202	0xbc81f14e	-0.015862133
203	0x38a6fe13	7.962822e-05
204	0x3b8b4202	0.004249812
205	0xbc054946	-0.0081351455
206	0xbca1775d	-0.019710237
207	0xbc8d0a81	-0.017216923
208	0xbb436f84	-0.0029821107
209	0x39626362	0.00021590063
210	0xbb5771f9	-0.003287433
211	0xbbaf1a58	-0.0053437166
212	0x3c8ccc82	0.01718736
213	0xbb966948	-0.004590187
214	0x3c2c7e81	0.010528208
215	0xbb8e96d8	-0.004351478
216	0x3c305b3a	0.010763938
217	0x3bb9883c	0.0056619924
218	0xbc79a131	-0.015236185
219	0x3c884658	0.016635105
220	0xbc03f9a9	-0.008055129
221	0x3c1073c1	0.00881666
222	0xbb3117af	-0.0027022173
223	0x3a4cef48	0.0007817638
224	0xba8c7ee0	-0.0010718964
225	0x3ca81114	0.020515956
226	0xbca2aa2f	-0.01985654
227	0x3bf5f702	0.0075062523
228	0x3c7bc18b	0.015365968
229	0xbab093b9	-0.0013471759
230	0x3c662771	0.0140474895
231	0x3b58daf5	0.0033089493
232	0xbc52c189	-0.012863525
233	0x3b85d468	0.0040841587
234	0x3a9537b6	0.0011384401
235	0xbc90cd87	-0.017676128
236	0xbc296e57	-0.0103412485
237	0x3b814e00	0.003946066
238	0xba9ae8cb	-0.0011818645
239	0xbb0eb995	-0.0021778096
240	0xbc82b20e	-0.015954044
241	0xbca6036d	-0.020265305
242	0x3b7ac4c5	0.0038264256
243	0x3bdd13fc	0.006746767
244	0xba64ee62	-0.00087330316
245	0xbbaf1d0a	-0.005344038
246	0xbbca6cd9	-0.0061775264
247	0xbc1edb93	-0.009695905
248	0x3cd1861f	0.02557665
249	0x3c00462b	0.007829229
250	0x3c304d4f	0.010760619
251	0xbbe38817	-0.0069437134
252	0x3c8d8cd9	0.017279075
253	0xbaf9842a	-0.001903658
254	0xbb392364	-0.0028249854
255	0x3aa1b3e2	0.0012336934

conv2.weight f4 [16, 6, 5, 5]
0	0x3bd37594	0.0064532254
1	0x3c9161e7	0.017746879
2	0x3c38e6eb	0.011285524
3	0x3b1326f9	0.002245365
4	0xbce3262a	-0.027728159
5	0x3ad30e16	0.001610222
6	0x3c02f918	0.007993959
7	0x3c82703a	0.015922654
8	0xbc0721a7	-0.008247769
9	0xbba0f972	-0.0049125487
10	0xbc413a43	-0.011793676
11	0x3bae9a35	0.0053284415
12	0xbca98b6f	-0.02069637
13	0xbb1ce6b4	-0.002394122
14	0xbc6358dc	-0.013876166
15	0xba8d2e5d	-0.0010771264
16	0x3a51c9af	0.00080027705
17	0xbca0c63b	-0.019625774
18	0xbbfce1ad	-0.0077173323
19	0x3bed51b3	0.0072424053
20	0xbafb340d	-0.0019165293
21	0xbbce9df5	-0.006305451
22	0xbbb081cb	-0.0053865663
23	0x3d178050	0.036987603
24	0x392913d6	0.00016124485
25	0x3b6d29e7	0.0036188306
26	0x3c412983	0.011789682
27	0x3c012cc8	0.007884212
28	0x3a9371ea	0.0011249159
29	0x3ba5fb70	0.005065374
30	0x3c29e814	0.010370273
31	0x3aba7639	0.0014225907
32	0xbac2bd95	-0.0014857525
33	0xbbaf3772	-0.005347186
34	0xb9876d57	-0.0002583067
35	0xbc3b5c2b	-0.011435549
36	0x3c75ce44	0.015002791
37	0x3c0563d5	0.008141478
38	0xbc12d120	-0.008960992
39	0x375510ad	1.2699672e-05
40	0xbca4fcc1	-0.020140054
41	0x3ba403b0	0.0050053224
42	0xbae6e468	-0.0017615678
43	0x3b9de7d8	0.0048188977
44	0x3c0cd06c	0.0085946135
45	0x3b2005c5	0.0024417501
46	0x3c63c03c	0.013900813
47	0x3c42a4d1	0.011880116
48	0x3caffbd0	0.021482378
49	0xbc540f99	-0.012943172
50	0x3c411e98	0.011787079
51	0x3be39495	0.0069452026
52	0xbbb44ade	-0.005502089
53	0x3c92e65c	0.01793211
54	0x3c384bcd	0.011248541
55	0xbc890aed	-0.016728843
56	0xbc0842de	-0.008316724
57	0x3b54fd98	0.0032499786
58	0x3adc1dcb	0.0016793547
59	0xbc83d15f	-0.016091047
60	0xbb9683cd	-0.0045933486
61	0xbc83160c	-0.016001724
62	0xbaf66bb7	-0.0018800412
63	0xbba676ab	-0.0050800643
64	0xbbdea1a7	-0.006794173
65	0xbb9ca20c	-0.0047800597
66	0xbac2b863	-0.0014855977
67	0x3c16761f	0.009183436
68	0x3bc87bd6	0.006118278
69	0x3c396da0	0.011317641
70	0xbb8a9bd9	-0.0042300043
71	0xbbe1f586	-0.0068957238
72	0xbb5786ca	-0.0032886737
73	0x3bcf0e1b	0.00631882
74	0x3b4a7059	0.0030889718
75	0xbbd186bd	-0.006394236
76	0x3ab50974	0.0013812021
77	0x3b7d8e23	0.0038689456
78	0x3aa04e8c	0.001223044
79	0x3c6aa3ab	0.014321248
80	0xbc447425	-0.011990582
81	0xbc63abb1	-0.013895915
82	0xbbde469d	-0.00678332
83	0xbb64406b	-0.0034828435
84	0xb991644a	-0.00027731276
85	0x3bb06921	0.005383626
86	0xbb17fc7f	-0.002319127
87	0xbba9bead	-0.005180201
88	0xbc4b2782	-0.012399556
89	0xbb03c63e	-0.0020107175
90	0x3bbf94b2	0.0058465833
91	0x3c8db604	0.017298706
92	0x3c392a4a	0.011301586
93	0xbb503232	-0.00317682
94	0xbbeb50d8	-0.007181268
95	0xbc02c4b3	-0.007981467
96	0xbc615b32	-0.013754653
97	0x3c7e2452	0.015511589
98	0xbb65e2d4	-0.0035077827
99	0xbbfda98f	-0.00774116
100	0xbbe92fc2	-0.007116289
101	0x394177f3	0.00018450599
102	0xbbb7a5e1	-0.005604491
103	0xbc32d2b0	-0.01091449
104	0x3ca0546a	0.019571502
105	0x3c12f505	0.00896955
106	0x39b2a949	0.00034076933
107	0x3c392daf	0.011302396
108	0x3bafb000	0.005361557
109	0x3be06482	0.006847919
110	0x396ac665	0.00022389887
111	0x3bfac53f	0.007652908
112	0x3b933a65	0.004493045
113	0xbc792b85	-0.01520813
114	0xbc9a0e07	-0.018805517
115	0xbc682d8d	-0.014171016
116	0xbc1ea4dd	-0.009682861
117	0x3b3bc939	0.0028653874
118	0x3bd2297e	0.0064136377
119	0x3c0f258a	0.008736977
120	0x3c3c5160	0.011494011
121	0x3c9ed8f5	0.019390563
122	0x3bef801d	0.0073089735
123	0xbb4a4f57	-0.0030870044
124	0x3c0c6b4f	0.008570506
125	0xbbb9c9da	-0.0056698145
126	0x3b17e4a8	0.0023177061
127	0x3c104256	0.008804878
128	0xba90ad49	-0.0011037971
129	0x3afee280	0.0019446164
130	0x3bccac2b	0.00624611
131	0x3bd87831	0.006606125
132	0x3b810fc1	0.0039386456
133	0x3c109f06	0.008826977
134	0xbb8da3dc	-0.004322512
135	0x3bc1623a	0.005901602
136	0xbc6c519c	-0.014423754
137	0x3b71fd09	0.0036924502
138	0x3c2ac48a	0.010422835
139	0x3bee9ef9	0.0072821346
140	0x3c078cca	0.008273313
141	0x3c494d0b	0.012286435
142	0x3bab0dae	0.0052201366
143	0xbadfb72f	-0.0017068143
144	0x3ca5168a	0.020152349
145	0x3be70d9f	0.0070511843
146	0xbbac6c2a	-0.0052619176
147	0x3c0c1c14	0.008551616
148	0x3b2ae9c1	0.002607927
149	0x3bc0481d	0.0058679716
150	0x3b553787	0.0032534318
151	0x3ca6443a	0.020296205
152	0xbb5df6be	-0.0033868994
153	0xbbbed04b	-0.0058231703
154	0xbbeb1d52	-0.007175126
155	0xba9d196b	-0.0011985725
156	0xbc6a8272	-0.014313327
157	0xba6570c8	-0.00087524625
158	0xbbe004f3	-0.0068365275
159	0xbc06f51c	-0.00823715
160	0x3b577007	0.003287317
161	0xbbe21282	-0.006899179
162	0x3be51e5a	0.0069921436
163	0xbcae4efb	-0.021277895
164	0xbc03704b	-0.008022378
165	0xbc4c117e	-0.012455342
166	0x3c3e0532	0.011597918
167	0xbc7d240b	-0.015450488
168	0xbc439a60	-0.011938661
169	0x3bc2dfe1	0.0059470986
170	0xbc0208da	-0.007936681
171	0x3bcf5405	0.0063271546
172	0xbbae1985	-0.0053131008
173	0x3c0fff13	0.008788842
174	0x3a79eb10	0.0009533623
175	0xbb46a710	-0.003031198
176	0x3bb9404c	0.0056534167
177	0xbc3c4f24	-0.011493478
178	0xba0527b2	-0.00050794624
179	0xbc9d8718	-0.019229457
180	0xb9bae900	-0.00035650283
181	0xba81d319	-0.0009904831
182	0x3c2c491c	0.0105154775
183	0x3ba3a20e	0.0049936837
184	0x3bc0823b	0.0058748997
185	0xbb501e33	-0.0031756281
186	0x3cb64ad8	0.022252485
187	0xbc5a0c0e	-0.013308538
188	0xbc0f2218	-0.008736156
189	0x3b95909b	0.0045643575
190	0x3c0ed974	0.008718837
191	0x3bee2a9f	0.0072682644
192	0xbcd4f25e	-0.025994476
193	0xbb08b1b5	-0.0020857875
194	0x3c0c55ab	0.008565347
195	0x3becc16e	0.007225207
196	0x3c5f204b	0.013618539
197	0xbbc671d3	-0.0060560494
198	0xbba99bbe	-0.0051760366
199	0x3c0c864f	0.008576944
200	0x3c632799	0.013864421
201	0x3c496bb9	0.0122937495
202	0xbb133795	-0.002246355
203	0xbcc25619	-0.023722695
204	0xbb827c2a	-0.0039820867
205	0x3bb56fea	0.005537023
206	0x3c94adfc	0.018149368
207	0x3bf05c9b	0.007335258
208	0xbc5e951a	-0.013585353
209	0xbb893625	-0.0041873627
210	0xbb220466	-0.002472186
211	0x398b9fd1	0.00026631218
212	0x3c68a959	0.014200532
213	0xba533d39	-0.0008058134
214	0x3c548dc0	0.012973249
215	0x3c9281ce	0.017884161
216	0xbba1cdd7	-0.004937868
217	0xbb8a7573	-0.004225427
218	0xbb3bf7e6	-0.0028681695
219	0xbbca9f90	-0.006183572
220	0xbaf03d05	-0.0018328732
221	0xbc0260f7	-0.0079576885
222	0xbc8ce04e	-0.0171968
223	0x3b0da3b1	0.002161246
224	0xbc569dec	-0.013099175
225	0x3c241be0	0.010016412
226	0xbb7b7962	-0.003837191
227	0xbcb78a22	-0.022404734
228	0xbc4bca7e	-0.012438415
229	0x3c394a9c	0.011309292
230	0xbb9ae810	-0.004727371
231	0x3c3aa0cd	0.011390877
232	0x3c605724	0.013692651
233	0xbb9e5596	-0.00483198
234	0x3c38b893	0.011274475
235	0x3c4fc153	0.012680369
236	0x3bb3e0e0	0.0054894537
237	0xbc8126d8	-0.015765592
238	0x3c78aa25	0.015177284
239	0xb915128a	-0.00014216654
240	0xbacb678c	-0.001551853
241	0xbc629753	-0.013830024
242	0x3c3faeb2	0.011699365
243	0xbc1eb0f3	-0.009685743
244	0x3a2fda23	0.0006708225
245	0xba1da840	-0.0006014146
246	0xba36806f	-0.0006961887
247	0x3bf54f55	0.0074862638
248	0xbc2fbce8	-0.010726191
249	0xbad22ae9	-0.0016034517
250	0xbc222c71	-0.009898291
251	0x3b498665	0.0030750271
252	0x3b349b43	0.0027558364
253	0xbc1ad19f	-0.009449392
254	0x3c0a4619	0.008439564
255	0x3b7babfa	0.0038402067

fc1.bias f4 [120]
0	0x371eaf7c	9.458392e-06
1	0xb7c944c8	-2.3993096e-05
2	0x38a7ee78	8.007599e-05
3	0x38482994	4.772244e-05
4	0xb8a9406f	-8.07055e-05
5	0xb8301148	-4.1977764e-05
6	0x3960a7b8	0.00021424785
7	0xb8c0e9a8	-9.198795e-05
8	0x373639e3	1.0861523e-05
9	0x00000000	0.0
10	0x387ac028	5.9783604e-05
11	0xb6e710a4	-6.8862737e-06
12	0x00000000	0.0
13	0xb7bb3915	-2.2318718e-05
14	0x37b06d92	2.1031858e-05
15	0x3724aa7b	9.814855e-06
16	0x3953da19	0.00020203776
17	0x37d0d6f6	2.4895631e-05
18	0xb7341b34	-1.073517e-05
19	0xb8aeb3c4	-8.3304505e-05
20	0x00000000	0.0
21	0x39354394	0.0001728668
22	0xb866783c	-5.494825e-05
23	0x39252cf1	0.00015752368
24	0xb86d7b16	-5.6619836e-05
25	0x38b17491	8.46173e-05
26	0x3918222c	0.0001450858
27	0xb98b743a	-0.00026598742
28	0x39376406	0.00017489502
29	0xb8848fd7	-6.321043e-05
30	0xb9291433	-0.00016124621
31	0x38200757	3.815381e-05
32	0xb85c2f14	-5.2495932e-05
33	0xb827da89	-4.001943e-05
34	0xb89cfbcd	-7.485561e-05
35	0xb83439e7	-4.296927e-05
36	0xb920fcce	-0.00015352966
37	0x00000000	0.0
38	0x370021a0	7.6372235e-06
39	0xb835ffb3	-4.33919e-05
40	0x39378fe1	0.00017505839
41	0x39392aa7	0.00017658864
42	0xb7961399	-1.789052e-05
43	0x396535b8	0.00021859154
44	0xb91e65ba	-0.0001510595
45	0xb639d3e4	-2.7690485e-06
46	0xb927e3a5	-0.00016011165
47	0x3639b020	2.7669666e-06
48	0xb79e7a6b	-1.8892073e-05
49	0x00000000	0.0
50	0x394abdf6	0.00019334987
51	0x38868ae8	6.415491e-05
52	0x38e68d0b	0.00010993526
53	0x39043f6c	0.00012612127
54	0x392f822c	0.00016737793
55	0xb6ec066c	-7.0340957e-06
56	0x38a85ed4	8.0285274e-05
57	0x388fc1f2	6.8548965e-05
58	0x37ee42dd	2.8402947e-05
59	0x00000000	0.0
60	0xb65268ab	-3.1353363e-06
61	0x38959754	7.133061e-05
62	0xb83a8bc3	-4.447602e-05
63	0xb885f415	-6.387398e-05
64	0x379d1bd2	1.8728813e-05
65	0xb9062701	-0.00012793766
66	0x00000000	0.0
67	0x36185f42	2.2705212e-06
68	0x39051c18	0.00012694334
69	0xb910ecce	-0.00013821127
70	0x391f4937	0.00015190696
71	0x38a4c1e3	7.8562436e-05
72	0xb75679bc	-1.27837375e-05
73	0xb98536d9	-0.00025408602
74	0x35cd69f8	1.5304531e-06
75	0xb9093148	-0.00013083697
76	0xb768b0f6	-1.38694795e-05
77	0x37fdd494	3.025894e-05
78	0x37d62ded	2.5532174e-05
79	0x00000000	0.0
80	0x388eac78	6.8032125e-05
81	0x37fce91f	3.0149296e-05
82	0x3380a346	5.990164e-08
83	0xb9756f6c	-0.00023406529
84	0xb793f1ff	-1.7636454e-05
85	0x37cf0dc5	2.4682735e-05
86	0x38b4ebe1	8.627005e-05
87	0x00000000	0.0
88	0xb7cc9aab	-2.4390718e-05
89	0xb847eaca	-4.766396e-05
90	0x381438a9	3.533872e-05
91	0xb95571c7	-0.00020355648
92	0x377bae8c	1.5001406e-05
93	0xb6d136cd	-6.235065e-06
94	0x37f9ffc1	2.9802208e-05
95	0x38445b63	4.6815152e-05
96	0xb8322d88	-4.248091e-05
97	0xb8047eab	-3.158922e-05
98	0xb4e5b420	-4.2785632e-07
99	0xb72adc56	-1.0184091e-05
100	0x38624fdc	5.3956974e-05
101	0x38795e52	5.945407e-05
102	0xb8991997	-7.300375e-05
103	0xb8d6d720	-0.00010244385
104	0x00000000	0.0
105	0x38f8cb5f	0.00011863442
106	0xb878d66f	-5.9327514e-05
107	0x37b52502	2.1594115e-05
108	0x00000000	0.0
109	0xb83467b4	-4.3011925e-05
110	0xb7b47e1b	-2.1516395e-05
111	0xb8ff799a	-0.000121819976
112	0xb7a1e9c0	-1.9301544e-05
113	0xb6feaeff	-7.590162e-06
114	0x381d88f3	3.755926e-05
115	0xb8057e4a	-3.1827287e-05
116	0x37d8b252	2.5832243e-05
117	0x398347b6	0.00025039696
118	0x35706200	8.9549576e-07
119	0xb85f3a89	-5.322186e-05

fc1.weight f4 [120, 256]
0	0x3c8be673	0.01707766
1	0x3c24078a	0.010011563
2	0x3c89a443	0.016801959
3	0x3bc7bc5a	0.0060954513
4	0x3c9f9a9e	0.019482907
5	0xbca7f80b	-0.020504018
6	0xbaad3add	-0.0013216395
7	0xb9d8aaed	-0.0004132608
8	0x3ae03ece	0.0017108561
9	0xbaf7513a	-0.0018868812
10	0xbc313c81	-0.010817648
11	0x3b602604	0.0034202347
12	0x3c00b034	0.00785451
13	0xbba234da	-0.004950148
14	0x3b3dce74	0.0028962167
15	0xbbafa421	-0.005360142
16	0x3c336506	0.010949379
17	0xbc464e0c	-0.012103569
18	0x3c7ed3ff	0.0155534735
19	0xbafcb2f0	-0.0019279402
20	0x3c08da02	0.008352758
21	0xbc44df32	-0.0120161045
22	0x3b7b6d03	0.0038364537
23	0xbb8985fc	-0.0041968804
24	0x3c898125	0.016785214
25	0xbc26fba4	-0.010191832
26	0xbb86572c	-0.004099747
27	0x3b848bcf	0.004044987
28	0xbb5641a4	-0.0032692933
29	0x3c4b4cf2	0.012408482
30	0xbbc8b46f	-0.006125025
31	0x3c6403fb	0.013916965
32	0x3b5c9910	0.0033660568
33	0xbc832fc3	-0.016013985
34	0x3baf1f2f	0.0053442935
35	0xbcba8802	-0.022769932
36	0x3b58ee17	0.0033100897
37	0xbb8ca736	-0.004292394
38	0xbbfe7748	-0.0077656843
39	0x3c9357ab	0.01798614
40	0x3b0d56df	0.0021566672
41	0xbb7dfe7e	-0.0038756425
42	0xbac10c42	-0.0014728385
43	0x3cb0d669	0.021586614
44	0xbb5ed30a	-0.00340003
45	0xbba8e199	-0.0051538465
46	0xbc380a23	-0.0112328855
47	0x3bb7445f	0.0055928673
48	0x3c092b78	0.00837218
49	0xbc1eaafe	-0.009684322
50	0x3b6c3cfc	0.0036047092
51	0xba3fa62d	-0.0007310834
52	0xbbb76ce0	-0.0055976957
53	0xbc0baa0d	-0.00852443
54	0x3b3752ae	0.0027972865
55	0x3c28066b	0.010255436
56	0xba1c280f	-0.0005956897
57	0xbc0e1d63	-0.0086739985
58	0xbc976cd9	-0.01848452
59	0x3c84f2cb	0.016229054
60	0xbb137fcc	-0.0022506593
61	0xbc018f8d	-0.00790776
62	0x3c2c76dc	0.010526385
63	0x3c26bd2d	0.010176939
64	0x3bc9121b	0.0061361915
65	0xbb9faff0	-0.0048732683
66	0xbbfd3ed1	-0.0077284356
67	0xbc3f50b0	-0.011676952
68	0x3be490e4	0.00697528
69	0x3b86f469	0.0041184914
70	0x3c832537	0.016008956
71	0x3c6074b3	0.013699698
72	0x3c0a34af	0.008435412
73	0x3c06abbb	0.008219655
74	0xbc496d28	-0.012294091
75	0x3b965fab	0.004589041
76	0x3b28dc5f	0.0025766117
77	0xbabe80cb	-0.0014534233
78	0x3b6eab8f	0.0036418175
79	0x3cb5bdf0	0.022185296
80	0xbbb3ebaf	-0.005490742
81	0xbd08b652	-0.033377
82	0xbc3b44b9	-0.011429959
83	0x3c3ed27f	0.011646866
84	0xbbf4d04c	-0.00747112
85	0xbb2851ca	-0.0025683516
86	0x3bf3a44a	0.0074353563
87	0xb9bebe2c	-0.00036381313
88	0x3bcfccc6	0.0063415496
89	0xba8308e6	-0.0009997159
90	0x3c85ee2a	0.016348917
91	0xbb987a8b	-0.00465328
92	0xbb207e77	-0.0024489441
93	0x3bd15851	0.006388702
94	0xbc21e2fe	-0.009880779
95	0xbc372161	-0.011177392
96	0x3ba49ce5	0.005023586
97	0xbb5f6f7c	-0.003409355
98	0x3c2c0fed	0.010501844
99	0xbb1ec18e	-0.0024224254
100	0x3bcde305	0.0062831664
101	0x3c1d7ade	0.009611813
102	0xbc60f34e	-0.013729883
103	0xbc05b108	-0.008159883
104	0x3b16145f	0.0022900326
105	0x3b422848	0.002962606
106	0x3c1f0ae7	0.009707189
107	0x3bc07ebe	0.005874484
108	0x3c0135c4	0.007886354
109	0xb9f1b90e	-0.00046104979
110	0xbc7fdeda	-0.015617097
111	0x3b933ac1	0.004493088
112	0xbbc22d4b	-0.0059258095
113	0x3c0f020c	0.008728515
114	0x3c5355df	0.012898891
115	0x3c0ff3ed	0.008786184
116	0x3b309860	0.0026946291
117	0x3982a6d5	0.00024919832
118	0x3b8ddc64	0.004329251
119	0x3c0ce0db	0.008598532
120	0x3ba42ac0	0.005009979
121	0xbb20cbf7	-0.0024535635
122	0x3c0f0ead	0.008731526
123	0xbbe5d5ec	-0.007014027
124	0x3bb447ea	0.005501737
125	0xbbedb97a	-0.0072547765
126	0xbc344dcf	-0.011004879
127	0x3c104424	0.0088053085
128	0x3899d9b9	7.3361625e-05
129	0x3c8c5dad	0.017134512
130	0xbb7fb71e	-0.0039019058
131	0x3c718e51	0.0147434035
132	0xb99a04ef	-0.00029376845
133	0x3b54503f	0.0032396463
134	0xbc6f0bc4	-0.0145902075
135	0x3bc89402	0.0061211595
136	0x3bdd29db	0.0067493743
137	0xbc0f5ebc	-0.008750614
138	0x3c3f97fa	0.011693949
139	0x3b51e4c6	0.0032027229
140	0xbb4b267e	-0.0030998285
141	0xbb0f4307	-0.002186002
142	0x3ca35f1b	0.01994281
143	0xbc8b063b	-0.016970744
144	0xbb67dabc	-0.0035378179
145	0x3bc42891	0.005986281
146	0xbc309df6	-0.010779848
147	0xbbd295f3	-0.0064265667
148	0x3c3ef8be	0.011655984
149	0x3c7d603a	0.015464837
150	0xbb32b25b	-0.0027266953
151	0xbccf335e	-0.025293048
152	0xbc0ab39b	-0.008465673
153	0xbab68f10	-0.0013928134
154	0xbc095ae3	-0.0083834855
155	0xbaa46fb1	-0.0012545494
156	0x3c47d096	0.012195727
157	0x3c6edaf8	0.014578573
158	0x3c517b93	0.01278581
159	0xbb71f8a9	-0.0036921895
160	0xbc8e9c36	-0.017408472
161	0x3c288d3e	0.010287581
162	0xbb3293cf	-0.0027248745
163	0x39fa7c41	0.00047776292
164	0xb9f7e25a	-0.00047280156
165	0xbb03961c	-0.0020078486
166	0x3c07bc6f	0.008284672
167	0x3b6bdb73	0.0035988956
168	0x3c92b435	0.017908195
169	0x3b065e17	0.002050286
170	0xbbd4b648	-0.006491456
171	0xbba1e652	-0.0049407864
172	0xbc3a4daa	-0.011371056
173	0xbbf6c265	-0.007530498
174	0xbc850d8d	-0.016241813
175	0x3c446c1e	0.011988668
176	0xbb12a655	-0.0022376974
177	0xbb08ddf8	-0.0020884257
178	0xbadc22f7	-0.0016795088
179	0xbb2a3ded	-0.0025976852
180	0xbb9bc2bb	-0.0047534383
181	0xbc1d4bab	-0.00960056
182	0x3c0dba80	0.008650422
183	0x3c53f8f3	0.012937772
184	0x3c0654c1	0.008198918
185	0x3c000fa5	0.00781623
186	0xbc82cc37	-0.015966518
187	0x3be435c7	0.0069644186
188	0xbc8b9d6b	-0.017042836
189	0xbc24cdc2	-0.010058822
190	0x3c78a5ac	0.015176218
191	0x3956346c	0.00020428159
192	0xbb4e89da	-0.0031515271
193	0x3c523c30	0.012831733
194	0x3b7127e7	0.0036797465
195	0xbc3eb4a2	-0.011639746
196	0xbbee5c91	-0.0072742184
197	0xbc175b12	-0.009238021
198	0x3bbd404f	0.0057754884
199	0xbbfab4c4	-0.0076509435
200	0xbadd5f88	-0.0016889432
201	0x3bdc8933	0.0067302226
202	0xbc95af13	-0.018271958
203	0xbcce7e32	-0.025206659
204	0x3c11cedf	0.00889942
205	0x3c80a880	0.015705347
206	0x3b71f873	0.003692177
207	0x3b989adb	0.004657132
208	0xbb2d0346	-0.0026399656
209	0x3b73e3c3	0.0037214614
210	0x3bdb972e	0.0067013716
211	0x3c45eb01	0.012079955
212	0xbccdfc9c	-0.025144868
213	0xbbcc867d	-0.006241618
214	0x3bab2487	0.0052228603
215	0xbaecde13	-0.0018071554
216	0x3b05c4fb	0.00204116
217	0xbb2df45c	-0.0026543355
218	0x3b057e8f	0.0020369624
219	0x3a0fb4af	0.0005481941
220	0x3b94f77b	0.0045461035
221	0xbc12c2ee	-0.008957608
222	0x3c5783f3	0.013154018
223	0x3c8f654e	0.01750436
224	0xbc1fb761	-0.009748311
225	0x3ce68c46	0.02814306
226	0xbb356acd	-0.0027682066
227	0xbc5fb485	-0.013653879
228	0xbc343f07	-0.011001355
229	0xbbb3266d	-0.005467227
230	0xb9af56c1	-0.00033443238
231	0xbb6c66cb	-0.0036072012
232	0xbb206b16	-0.002447789
233	0xbaa54c43	-0.0012611229
234	0xba42cdea	-0.0007431196
235	0x3b71d464	0.0036900276
236	0x3b8d864b	0.0043189875
237	0x3c8469ae	0.016163673
238	0xbc40920b	-0.011753569
239	0x3bcd7870	0.006270461
240	0xbcdb366c	-0.026759349
241	0xbc0f3b45	-0.008742158
242	0xbaf68876	-0.0018808979
243	0xbaadb294	-0.0013252073
244	0x3c193e4c	0.009353232
245	0x3c53d173	0.012928355
246	0xbb8decee	-0.0043312227
247	0x3b6c14c8	0.0036023129
248	0x39addcc0	0.00033161603
249	0x3ad0a1cb	0.0015917359
250	0x3afb9ad9	0.0019195928
251	0xbc0f8189	-0.008758911
252	0xba4f051f	-0.00078971864
253	0x3cdaa47e	0.026689764
254	0xbc2b3e48	-0.010451861
255	0x3b73c030	0.003719341

conv1.weight f4 [6, 1, 5, 5]
0	0xbbd05e08	-0.0063588656
1	0xbaf796c2	-0.0018889534
2	0x3b76a134	0.0037632706
3	0x3b8388c2	0.0040141055
4	0x3a6c9c96	0.00090260187
5	0x3c0645af	0.008195325
6	0xbb2f1c71	-0.0026719833
7	0x3b7b515e	0.003834806
8	0x3c031983	0.008001688
9	0x3a0b9b80	0.00053256005
10	0xbc70875d	-0.014680711
11	0xba9acca4	-0.0011810255
12	0x3b41e9e8	0.0029588882
13	0xbb847d98	-0.0040432923
14	0x3ba379e7	0.004988897
15	0xba27e791	-0.00064050505
16	0x3c5c3897	0.013441226
17	0x3b902b85	0.004399719
18	0x3b69c39b	0.0035669568
19	0xbc114e9c	-0.00886884
20	0xbb60e849	-0.003431814
21	0x3c23e612	0.0100035835
22	0x3c399d3c	0.0113289915
23	0x3cb315af	0.021860925
24	0x3bc0099e	0.0058605215
25	0xbc678c94	-0.0141326375
26	0x3b25d2de	0.0025302689
27	0x3a9eab1e	0.001210544
28	0xb7616ef8	-1.3436882e-05
29	0xbc2a23ed	-0.010384542
30	0xbc4b05f0	-0.012391552
31	0xbc561bc4	-0.013068143
32	0x3b291722	0.0025801142
33	0xbb88e3de	-0.0041775545
34	0xbb6ffb0b	-0.003661814
35	0xbb9e0eb6	-0.004823531
36	0xbc44c73a	-0.01201039
37	0xbc1ba93d	-0.009500799
38	0xbb3083ef	-0.0026934107
39	0xbb32f09e	-0.0027304064
40	0xbbf670c0	-0.007520765
41	0xbc5d0dca	-0.013492057
42	0xbc002e26	-0.007823503
43	0x3b665fe1	0.0035152363
44	0x3ac960f6	0.001536398
45	0x3cb92ccc	0.022604369
46	0x3a444fc2	0.00074886915
47	0xbc34a9a5	-0.0110267745
48	0x3cb74cf1	0.022375556
49	0x3b9887db	0.004654867
50	0xbbbed26d	-0.0058234246
51	0xbc0e238e	-0.008675469
52	0xbbc83b3a	-0.006110576
53	0xbcbd2b46	-0.023091923
54	0x3b941310	0.004518874
55	0xbc39d653	-0.011342603
56	0x3b6c391d	0.0036044784
57	0xbc4dc855	-0.01255997
58	0x3b853477	0.004065092
59	0xbc686e02	-0.014186384
60	0x3c56b564	0.01310477
61	0x398655d5	0.00025622422
62	0x3ca24a6b	0.019810876
63	0x3a158585	0.0005703795
64	0xbbf763e4	-0.0075497497
65	0xbc23973c	-0.009984788
66	0x3c0820da	0.008308614
67	0xba63cd55	-0.00086899596
68	0xba54d11b	-0.00081183173
69	0x3c518a5d	0.012789336
70	0xbc6019f4	-0.013678063
71	0x3ba9d4ab	0.0051828227
72	0x3bb7c36e	0.005608014
73	0xbb384954	-0.002811988
74	0x3cd6cb2c	0.026219927
75	0xbb7b9ba5	-0.0038392332
76	0x3bb8a81c	0.0056352746
77	0x3c0eb90c	0.008711111
78	0xba442f94	-0.00074838963
79	0xbc86b4c7	-0.016443623
80	0xbc5fddec	-0.01366375
81	0xbc385f1b	-0.011253144
82	0xbc267532	-0.0101597775
83	0xbbd3dd07	-0.0064655575
84	0x3c934453	0.017976915
85	0x3b43162f	0.002976786
86	0xbc26c17f	-0.010177969
87	0xbc551b89	-0.013007053
88	0xbaa3297a	-0.0012448274
89	0x3be73e59	0.007056993
90	0xbc678b08	-0.014132269
91	0x396d880e	0.00022652766
92	0xbc0387be	-0.008027969
93	0x3be72420	0.007053867
94	0xbbcf912c	-0.0063344445
95	0xbbd79e9c	-0.006580187
96	0x3b79a952	0.0038095308
97	0x3c8733d8	0.016504213
98	0xbb8841c9	-0.004158233
99	0xba5dab67	-0.0008456022
100	0xbbb0083f	-0.0053720768
101	0xbc53f6f0	-0.012937292
102	0x3c287422	0.0102815945
103	0x3c2e90bc	0.010654625
104	0xbb723795	-0.00369594
105	0xbca2cea2	-0.01987392
106	0xbcb19923	-0.021679467
107	0xbba38a75	-0.0049908706
108	0x3cc1e5d4	0.02366916
109	0x3cc14bf6	0.023595791
110	0xbb7fe5d1	-0.0039046893
111	0xbcabeb44	-0.020986207
112	0xbbd08610	-0.0063636377
113	0xbbb53b51	-0.0055307527
114	0x3bf570b9	0.007490244
115	0xbcae33aa	-0.02126487
116	0x3c4e5ab2	0.012594866
117	0x3cb2941c	0.02179914
118	0x3b6e108e	0.0036325785
119	0x3c473274	0.012158025
120	0xbc30d1bd	-0.010792193
121	0xbc018ea7	-0.007907546
122	0xbb0e9573	-0.002175656
123	0x3c88a9f2	0.016682599
124	0x3be2cf63	0.006921695
125	0x3c47f310	0.012203947
126	0x3c6e58ae	0.01454751
127	0x3ab0410b	0.0013447119
128	0xbc17df5f	-0.009269564
129	0x3c277c04	0.010222439
130	0x3b25df65	0.0025310155
131	0xba884057	-0.0010395151
132	0xbcad2838	-0.021137342
133	0xbb7d45e8	-0.0038646404
134	0x3ba3f23e	0.0050032428
135	0x3c486bdb	0.012232746
136	0xbc9195c4	-0.01777161
137	0xbc602552	-0.013680773
138	0xbb74c64c	-0.003734964
139	0x3c9c2453	0.01906029
140	0x3b0e3983	0.002170176
141	0xbb2116dd	-0.0024580278
142	0xbafd0d91	-0.0019306411
143	0xbb694ad6	-0.0035597584
144	0xbb733829	-0.0037112331
145	0xbc9f20b6	-0.019424777
146	0xbc0868d4	-0.008325774
147	0x3a7e61d8	0.0009703911
148	0x3c3da576	0.0115750935
149	0xbc4d68b4	-0.01253717
